model/model.pth (torch, 16787 bytes, 4 tensors)

linear1.weight f4 [256, 11]
000000 c7 42 3a 3e 12 33 8f be 20 d7 fd bd 9d 58 27 3f
       0.18189536 -0.2796865 -0.123945475 0.6536959
000010 4f a6 ae 3e 9e a8 5a 3d de 15 c1 be 94 75 a9 be
       0.34111258 0.053383462 -0.37711996 -0.33097517
000020 3d 91 a3 be 79 cd d2 3c a8 42 f2 3e 5b e2 1f bf
       -0.31946746 0.025732743 0.4731648 -0.62454766
000030 a7 5d 7d be b4 09 d3 be 19 11 e4 3e cd 2c 2a bf
       -0.24742757 -0.4121834 0.44544294 -0.6647461
000040 69 3f ed 3e 9a 6e 18 3e 29 b6 bc be 9a dc 83 bf
       0.4633744 0.14885941 -0.36857727 -1.0301697
000050 4b 60 a8 be 4d a4 41 bd be 0b ff bd 1e d5 86 be
       -0.32885966 -0.04727583 -0.124534115 -0.2633447
000060 7f a4 34 be f4 2c 2b 3e 05 87 a2 3e 97 04 9c be
       -0.17640875 0.16716367 0.31743637 -0.30472252
000070 e2 f8 90 3b 5f 38 04 bf 48 82 db be cc b3 33 be
       0.0044242004 -0.51648515 -0.42872834 -0.17549056
000080 ec fe a1 bc 8f 1c 2c 3f de db f9 3e e6 41 37 3f
       -0.019774877 0.67231077 0.48800558 0.7158493
000090 6d af 54 3f 35 54 44 3f 64 2f 48 3f b2 e4 42 3f
       0.8308018 0.7669099 0.7819731 0.7613021
0000a0 0e 0e ca 3f 02 e9 99 3f b7 b2 b6 3f 40 d1 b5 3f
       1.5785539 1.2024233 1.427329 1.4204483
0000b0 48 59 89 be e6 49 88 be e7 31 e7 bd 6a 4f 15 bf
       -0.2682593 -0.2661888 -0.11288815 -0.583243
0000c0 a2 18 df 3e e0 7f 87 3f b3 08 c4 3e 44 ed 5e 3f
       0.4357348 1.0585899 0.38287887 0.8708079
0000d0 e7 67 13 be a6 32 2e bf cb 79 e2 bd 03 af 49 3d
       -0.14395104 -0.68046033 -0.110583864 0.04923917
0000e0 b1 cb bf bc 97 f6 f6 bd 0e 7c 52 3e ca d0 dd bd
       -0.023412557 -0.12058752 0.20555136 -0.10830839
0000f0 46 fe de bd f2 fe f7 bc 49 7f 80 be a7 2e b8 3c
       -0.108883426 -0.030272935 -0.2509711 0.022483183
000100 8b 94 45 3d c2 26 8e bd ad 53 f1 be c2 67 b3 be
       0.048237365 -0.06940986 -0.47134152 -0.35040098
000110 6d e0 fe be 37 55 1f bf c9 2b 1e 3f b8 33 11 3f
       -0.49780598 -0.622394 0.6178556 0.5671954
000120 d4 21 22 bf ac 62 86 bf c2 0f c1 3d 40 bd 82 3d
       -0.6333287 -1.0498862 0.09426834 0.06383753
000130 50 1c 91 bf 68 28 c0 3e d6 a0 d5 be 8c bd 62 be
       -1.1336765 0.37530828 -0.4172427 -0.22142619
000140 ef 13 b1 3e fb a5 53 bf 24 40 a2 be fe be bd bd
       0.3458552 -0.8267514 -0.3168956 -0.092649445
000150 fc 47 9b 3e b3 1a 10 bf bc 14 2d bf 49 0e 45 bf
       0.30328357 -0.5629074 -0.67609763 -0.7697492
000160 3c a3 a9 3d 46 86 38 be 2e 94 e7 bd d3 60 a0 3e
       0.082830876 -0.18019971 -0.1130756 0.3132387
000170 3a 4b 02 bf 57 61 79 3e af 92 cb 3e a8 ff 04 bf
       -0.50896037 0.24353538 0.39760348 -0.519526
000180 34 56 16 bf 1b 9a 98 be 5d 08 de be 90 00 fa bb
       -0.58725286 -0.29805073 -0.43365756 -0.0076294616
000190 c0 1c e4 be 35 56 21 3e 75 fd 2f 3f 26 71 b8 be
       -0.44553185 0.15755542 0.6874612 -0.36023825
0001a0 62 5f 27 bf 10 4c 32 3f 03 25 86 be e6 7a 99 bf
       -0.6537992 0.6964731 -0.26200113 -1.1990631
0001b0 0f 21 91 bf 83 49 19 be 52 9b b4 3e 14 1e de 3d
       -1.1338214 -0.14969449 0.3527475 0.10845581
0001c0 2b ec 74 be 19 2e 85 3e d5 08 15 3f 70 0a ea be
       -0.23918216 0.26011732 0.582166 -0.45711088
0001d0 af c8 9d be c3 ad 56 bf 6d 24 0d bf fc 36 f3 3e
       -0.30817172 -0.8385889 -0.55133706 0.47502887
0001e0 d2 5a b1 3e 04 24 c7 be a0 d2 9e be 9c 6d f4 be
       0.34639603 -0.38894665 -0.3102007 -0.47739875
0001f0 75 56 34 3e 50 32 05 bf e3 d0 8f 3e e6 a7 91 3e
       0.17611106 -0.52029896 0.28089055 0.2844841
000200 d9 ca ec be 19 c6 31 bf dc bb 46 bf bd 92 07 bf
       -0.4624851 -0.694429 -0.776304 -0.5295828
000210 d1 ca 00 bf d8 5b 56 be c0 ee 84 be fe 22 0e 3f
       -0.50309473 -0.20933473 -0.25963402 0.55522144
000220 ce 69 d3 be a1 96 5a 3e 22 81 78 3e db 72 07 bf
       -0.4129166 0.21346523 0.2426801 -0.5290963
000230 a6 1d 91 bf 7c 81 a2 be ee a0 a2 be 74 93 04 3e
       -1.1337173 -0.31739414 -0.31763405 0.12946874
000240 1c 9a 97 be ab 07 99 bd a3 e5 46 3e 61 2a 97 be
       -0.29609764 -0.07472166 0.19423537 -0.2952452
000250 2d 2f 6c 3e e6 1e 17 3f 44 17 ce 3d ab c5 1e 3f
       0.23064871 0.5903152 0.10063031 0.6202037
000260 55 b8 ab be 33 ec 2a bf ce 10 b6 be 1c 93 d6 bd
       -0.33539072 -0.6676666 -0.35559696 -0.10477278
000270 0f 98 3e bf 48 0b 12 bb c5 f4 1f 3d ac ae 8c 3e
       -0.74450773 -0.0022284556 0.03905179 0.27477014
000280 8a 87 0c be b3 9d bd be 57 3b 47 be b3 21 66 bf
       -0.13723579 -0.37034377 -0.1945623 -0.8989517
000290 6c cb 68 bf e1 41 47 bf ea a6 f0 be 40 ec 86 bd
       -0.909354 -0.778349 -0.47002345 -0.0658803
0002a0 b4 f7 f0 3e a5 0c c4 3e 86 ba 0e bf 2e a7 0a bf
       0.47063982 0.38290897 -0.5575336 -0.54161346
0002b0 71 83 eb 3e cb a9 09 3f 1b b4 17 bf 6a b1 1c bf
       0.4599872 0.5377471 -0.59259194 -0.6120821
0002c0 dd 1d 2a bf c9 7f 88 3c 7a b4 c4 3e 4c f3 10 bf
       -0.6645182 0.016662495 0.38418943 -0.5662124
0002d0 d1 11 ea 3e 72 f4 9a 3e 46 13 18 3d 82 c4 7f bf
       0.45716718 0.30264622 0.037127756 -0.9990922
0002e0 3f 6f 70 be 1b e2 4d 3e 91 c0 ad 3d 0d 40 47 3e
       -0.23479937 0.20105784 0.08483995 0.19458027
0002f0 6d 39 07 3f fd 72 31 bf aa c3 33 3d e6 2c 86 3d
       0.52822 -0.69316083 0.04388777 0.065515324
000300 ee 36 b1 3d 93 fd a6 3d d1 51 9b be 29 0f a0 be
       0.08653055 0.08153834 -0.30335858 -0.31261566
000310 aa 45 97 be 3a 0a 82 be 95 ea c9 bd d9 a8 51 be
       -0.29545337 -0.25398427 -0.09859196 -0.20474567
000320 aa 07 e8 be b8 c5 e9 3a dd ad fc be 8e 9b 17 3d
       -0.45318347 0.0017835414 -0.49351397 0.037013583
000330 3a 49 1c 3e 53 d0 b2 be c9 49 d7 be 69 c8 5c bf
       0.15262309 -0.34924564 -0.4204848 -0.862433
000340 f1 c3 d0 be e2 3e 96 bd e4 3e 47 be 31 b6 ae bd
       -0.4077449 -0.07336213 -0.19457585 -0.08530844
000350 8a 2b 39 be 96 10 7a be 92 e2 0d bd d9 3e 7d be
       -0.18083015 -0.2442039 -0.034639902 -0.24731006
000360 6c e2 81 bd b7 70 78 3d 41 0c a9 bd 87 2d a5 3b
       -0.06342015 0.06065437 -0.0825429 0.0050408277
000370 d6 02 bc be fb 4b 61 be 06 45 f7 be af b8 82 3e
       -0.36720914 -0.2200164 -0.48294848 0.25531527
000380 08 6f b7 3e e2 50 91 3e 86 35 a0 3e 04 b2 3f bf
       0.35826898 0.2838202 0.31290835 -0.74881005
000390 51 d7 3a bf 6d bb e9 be 75 16 c1 be 6f f8 ea 3e
       -0.72984797 -0.45650807 -0.37712446 0.45892665
0003a0 11 80 68 3e 07 1a 4d bf 01 2d 12 3f 73 fc d1 3e
       0.22705103 -0.8011784 0.5709992 0.41012916
0003b0 94 51 07 bf 94 73 df be 20 44 5b bf f2 33 37 bf
       -0.52858853 -0.43642867 -0.85650826 -0.7156364
0003c0 69 14 5d 3e d9 4b 13 3e b3 a5 dd be 42 fd 1f be
       0.21589817 0.14384402 -0.4329048 -0.15623954
0003d0 e2 f0 be 3d b2 ab 45 3e 75 3b a1 3d d5 33 fc 3e
       0.093232885 0.19303778 0.07872669 0.49258295
0003e0 a9 2b f3 be fc 6c 93 be 7a 4d a4 bd 26 37 b3 be
       -0.47494248 -0.28794086 -0.0802259 -0.35003012
0003f0 87 a3 6d bf f3 7e 92 bd 1f 65 ba be 2e 10 72 3e
       -0.9282765 -0.0715312 -0.36405274 0.23638985

linear1.bias f4 [256]
000000 26 2c 4b bd 50 42 03 3f 5e bb a9 bd 84 32 e8 3f
       -0.04960265 0.5127306 -0.082876906 1.8140416
000010 3d 13 69 be 71 be b2 be 63 d7 bb 3e 6f b7 ea 3d
       -0.22761245 -0.3491092 0.36687765 0.114607684
000020 bb 2b 20 3f 6e 67 08 3f 26 12 9c bd 5e 3a 51 3f
       0.6256673 0.5328282 -0.07620649 0.81729686
000030 61 f8 11 3f a2 ab d3 bd bb 53 0d 3f 1c e0 49 3d
       0.5701962 -0.10335471 0.5520589 0.049285993
000040 71 56 d4 3e 44 d3 d8 3e 5b 49 1e 3f b0 7f 4e bd
       0.414722 0.42348683 0.6183068 -0.05041474
000050 92 d2 60 3f 1d c0 8c 3e 24 c7 ce 3e dc 63 f1 3d
       0.87821305 0.2749032 0.40386307 0.11786625
000060 c6 a0 43 3e 09 b2 ec 3d fc 3b 15 bd 5d c1 8b 3e
       0.19104299 0.11557395 -0.03643416 0.27295962
000070 46 ed ef 3e b5 e6 f9 3e 32 d9 5f 3f 3d da 60 3f
       0.46860713 0.48808828 0.8744079 0.87833005
000080 c9 8f 13 3e a4 01 81 3f 8c e9 e3 3e 58 69 83 3e
       0.14410318 1.0078626 0.4451412 0.25666308
000090 e9 08 f3 3e 96 37 46 bd 27 ac 4c 3f 21 4d b9 3e
       0.47467735 -0.048392855 0.79950184 0.36191657
0000a0 3c d6 a4 3e 1e 15 a6 3e 77 45 20 3f a1 d4 ad 3e
       0.32194698 0.32437986 0.62605995 0.33951285
0000b0 e8 51 86 3e d4 54 65 3f b0 59 14 3a 23 23 dc 3d
       0.26234365 0.8958256 0.00056591164 0.10748889
0000c0 9a 6b 2a 3e 02 14 b3 3e 06 81 26 be ca 74 99 be
       0.16642609 0.34976202 -0.16260156 -0.29971915
0000d0 cb 24 0a 3f 28 98 f1 3c 82 08 a3 be 67 81 bd 3e
       0.5396239 0.029491499 -0.31842428 0.3701279
0000e0 b5 04 04 3f 91 f7 17 be e8 1f ea 3e 8d 58 f5 bd
       0.5156968 -0.14840533 0.45727468 -0.1197978
0000f0 b9 28 98 be e1 a9 d3 3b be 20 91 3e c9 23 22 bd
       -0.2971857 0.00645946 0.28345293 -0.03958491
000100 b0 7f 2d 3d 4b fe d6 3d 39 96 18 3f 4e 47 80 3f
       0.0423581 0.10497721 0.5960422 1.002176
000110 0c b5 98 3e 55 14 f1 3d ca 84 07 3e 6b dd c2 3e
       0.29825628 0.11771456 0.13234249 0.38059554
000120 a5 8a da 3e e0 3c 14 3f 13 52 83 3f ee 4c 27 3f
       0.42683902 0.5790539 1.0259422 0.6535176
000130 15 10 1c 3f a5 fc 23 be 8a ba 76 3e 06 4c 16 3e
       0.6096204 -0.16014345 0.24094597 0.14677438
000140 5e bf 50 3c c1 26 e1 bc b0 5c 2e ba cf 15 ea 3e
       0.012740938 -0.0274843 -0.0006651385 0.45719764
000150 73 92 b7 3e a4 42 45 be f3 99 8d be f5 fd b1 3e
       0.3585392 -0.19263703 -0.27656516 0.34764066
000160 1e bf ea 3e a4 8a 68 be 80 b8 18 3f 18 67 58 3f
       0.45848936 -0.22709137 0.59656525 0.8453231
000170 3f 74 3e 3f 4a 91 7b be 36 67 1e 3e 84 97 29 3f
       0.7439613 -0.24567142 0.1546906 0.6624682
000180 d0 d2 1c 3f 9b 16 5d 3e 42 ea 3f 3f c3 6c 51 3f
       0.61259174 0.21590655 0.74966824 0.8180658
000190 80 2f 17 be 94 7a a1 3e 88 d8 3f 3f e3 a4 6c 3e
       -0.14764214 0.31538832 0.74939775 0.23109774
0001a0 b3 8f 27 3e 83 b3 05 3f 25 f4 6c 3f 02 40 64 be
       0.1636341 0.5222704 0.92560035 -0.22290042
0001b0 19 13 3b 3f bf 79 08 3f 76 8f 17 3e fb 49 08 3f
       0.73076016 0.5331077 0.1480082 0.53237885
0001c0 76 b7 65 3f e6 58 4e be a3 ca 0c 3e e8 72 9f bd
       0.89733064 -0.201511 0.13749175 -0.077855885
0001d0 48 ed e6 3e 36 7b 1b 3f 19 bb 0c 3f af 01 31 3f
       0.45102906 0.6073488 0.5497299 0.69143194
0001e0 92 33 17 3f 69 9f 0e bd c7 f8 65 3f 15 cb ae 3e
       0.59063065 -0.034819994 0.8983273 0.34139314
0001f0 1f 00 ff be 08 3f 77 3e 5b 1b ad 3e 32 4c 8c bd
       -0.4980478 0.24145138 0.33809933 -0.068504706
000200 82 82 10 3e bc 88 e2 3e ea 68 a8 3e 61 e1 37 3f
       0.14112285 0.44244945 0.32892543 0.71828276
000210 d6 14 74 be e3 b9 d9 3e d1 81 c3 3e b3 97 cd 3d
       -0.23836073 0.42524633 0.3818498 0.100387
000220 05 a8 71 3e 5f 3c 12 3e f9 24 cd be a4 b1 8b be
       0.2359925 0.14280842 -0.4006727 -0.27283967
000230 f5 ad e5 3d ba c2 dd bd f2 10 6e bc 30 b1 8d 3d
       0.1121482 -0.10828157 -0.014530407 0.069185615
000240 6a 37 a0 bd da 02 40 3f 30 e7 28 3f 0e 16 d5 3c
       -0.078230694 0.7500435 0.65977764 0.026011493
000250 14 7e 0b 3f f0 89 44 3e 0f 52 ea 3e a4 f5 38 3f
       0.54489255 0.19193244 0.4576573 0.7224982
000260 c9 55 7c 3e cf 60 cd 3e 66 98 83 3d 37 2e 51 3f
       0.246421 0.40112922 0.06425552 0.81711143
000270 a4 d5 00 3e 85 eb 04 3d a8 36 57 3f c6 23 3a 3f
       0.12581497 0.03245117 0.84067774 0.72710836
000280 86 d8 bb 3e d3 bf 2e be d7 fb a2 be fe 5e cf 3e
       0.36688632 -0.17065363 -0.31832764 0.4050216
000290 fe 46 39 3f b5 1a f5 3e 43 0b e1 bd 00 ff fc bd
       0.7237395 0.47871938 -0.10988476 -0.12353325
0002a0 e2 ff 11 3f 87 91 81 3e 1c 3a 68 3f 55 aa b2 3e
       0.5703107 0.2530634 0.9071367 0.34895578
0002b0 48 d6 18 3f d4 c0 22 3f 75 7a 15 3f 60 69 88 be
       0.5970197 0.6357548 0.5838998 -0.26642895
0002c0 24 bd 2e 3f 6c 48 ae 3d 94 35 a5 3e 3b b5 0b be
       0.68257356 0.08509907 0.3226744 -0.13643353
0002d0 93 74 f3 3e 62 40 18 3f 21 f0 9d 3c 5b 80 c1 3e
       0.47549877 0.5947324 0.019279541 0.3779324
0002e0 9b b1 2b 3f 81 3d 16 3e f4 1e 52 3f c6 fe 05 be
       0.6706788 0.146719 0.8207848 -0.1308547
0002f0 05 84 82 3e 62 5e e5 3e b1 53 31 bd 25 ef 18 3e
       0.25491348 0.4479857 -0.043292705 0.14934976
000300 c9 6e 83 3e b1 c4 f0 3d 6e 0f 8a be 12 4b 00 3f
       0.2567046 0.11756266 -0.26964897 0.5011455
000310 73 93 9d 3e e7 fb 9a be c6 ae 87 3e 77 a5 bc bc
       0.30776557 -0.3027031 0.2650053 -0.023028119
000320 8b c8 58 be 9e f2 8f 3d 33 a8 df bd be 9e c7 3e
       -0.21170251 0.070286974 -0.10920753 0.38988298
000330 f9 54 86 3e 6f a6 fb 3d b9 e5 83 be 8d 6c d5 3e
       0.26236704 0.12287604 -0.25761202 0.4168438
000340 0f 41 7e 3f f5 39 7a 3e 0b dc f8 3e 48 09 ed 3f
       0.9931802 0.24436171 0.4860538 1.8518457
000350 66 a8 d0 3e c8 6d 5c 3f f0 01 89 3d 19 98 dd 3d
       0.40753478 0.8610501 0.06689823 0.10820026
000360 37 b4 e9 3e 55 2e 31 3f 88 d5 79 be b9 9c e1 bd
       0.45645306 0.6921132 -0.24397862 -0.110162206
000370 47 00 1a 3f 41 09 85 3e 44 2a c4 bb ca aa 25 3f
       0.60156673 0.25983623 -0.005986484 0.6471373
000380 00 57 30 3e 9c 80 22 3f 10 0b 6b 3e e4 a0 20 3f
       0.17220688 0.6347749 0.22953439 0.627455
000390 b3 c9 cc 3e d1 b4 5f 3f bf 4e 85 3f 07 23 f1 3e
       0.39997634 0.8738528 1.0414656 0.47097036
0003a0 89 41 72 bb 0d 38 34 be 63 34 92 3e e1 ea 83 3e
       -0.0036965332 -0.17599507 0.28555593 0.25765136
0003b0 35 e3 61 3d 76 3c 08 3b 7f e1 eb 3e 81 05 30 3f
       0.055148322 0.002078799 0.46070477 0.687584
0003c0 78 23 0c 3f 9a 5f ac be e3 d3 2c 3e ac 8d 05 3e
       0.5474162 -0.33666688 0.16877703 0.13042325
0003d0 97 90 a5 be b9 30 a4 3e 6d 88 a9 3e 79 51 d0 3d
       -0.32336876 0.32068422 0.33111897 0.1017179
0003e0 64 13 6b 3f 8a 65 e8 3e 66 77 6e 3e 1f 01 93 be
       0.9182646 0.45389968 0.23287734 -0.28711793
0003f0 a4 98 2e 3f 66 4e 35 be 4e c3 eb bd 26 12 d3 bd
       0.6820166 -0.17705688 -0.11511861 -0.10306196

linear2.weight f4 [3, 256]
000000 dc 38 b4 be 21 6a 0e 3f 30 e3 7e 3d b4 65 21 bf
       -0.3519963 0.5563069 0.06222838 -0.6304581
000010 9d dd d5 bf 29 2c 22 bd 30 dc 84 3f 9d d8 fa 3e
       -1.6708256 -0.039592896 1.0379696 0.48993388
000020 c0 23 dd 3e 08 f8 7d 3f a1 fb fc be 1a c0 da 3e
       0.43191338 0.9920659 -0.49410728 0.42724687
000030 39 1a 2f 3f 38 f7 dc be 74 91 ab 3e 3f 65 f7 3e
       0.6839939 -0.43157363 0.3350941 0.48319432
000040 dd a5 28 3f 1f 46 97 3e 97 19 98 3e 9c 46 1f 3d
       0.6587809 0.29545686 0.29707024 0.038885698
000050 af 91 0f 3f 84 4f 28 be c6 f9 1c 3f 08 4c bb 3e
       0.5608167 -0.16436583 0.61318624 0.36581445
000060 41 db f8 3e 2f bd bb be 39 cd 19 3f 19 72 bd 3e
       0.48604777 -0.36667773 0.6007877 0.37001112
000070 8d df f8 3e ac 8b 20 bf f3 81 bd 3d 90 19 0c 3f
       0.48608056 -0.6271312 0.092533015 0.54726505
000080 66 6d 2a 3f f5 61 77 3f 85 0f 56 3e 79 98 ba 3e
       0.6657318 0.96633846 0.20904358 0.36444452
000090 80 a0 72 3f f9 3e da bf 3c ca b6 3e 9f c3 55 3f
       0.94776154 -1.7050468 0.35701168 0.8350162
0000a0 71 9f 03 3f 2b 1f 7b 3f 64 a4 c8 3e 98 13 a3 3e
       0.51415163 0.98094434 0.3918792 0.31850886
0000b0 78 ec c5 bd e6 d9 ee 3e bb 90 d9 bd 22 39 59 bb
       -0.096642435 0.46650618 -0.10623308 -0.0033145626
0000c0 53 a2 a6 3e 0e c9 39 3f 22 ca 65 3c 40 36 fb bc
       0.3254572 0.7257241 0.014025243 -0.030665517
0000d0 92 5a 4f 3f a0 b0 0c 3f 3c 66 fb bd 35 ea 5b 3e
       0.80997574 0.5495701 -0.12275359 0.21476062
0000e0 b8 5e bc 3e e2 f2 5d 3d 1f 75 53 3e 5d 60 e8 bf
       0.36791015 0.05418671 0.20650147 -1.8154408
0000f0 0e 2d 97 bf 13 92 f6 3e 56 f3 d0 3e 25 1f d6 3e
       -1.1810625 0.4815832 0.4081065 0.41820636
000100 35 04 29 3f 41 5a 36 bf 93 e6 bf 3e 1e a6 58 3f
       0.66022044 -0.71231467 0.37480602 0.84628475
000110 84 a7 34 3f 24 af 38 bf 45 b6 82 3c 43 c4 26 3f
       0.7056811 -0.72142243 0.015956054 0.6514322
000120 c9 99 84 3e d4 5e 92 3e 51 48 3b 3f d9 50 f7 3e
       0.2589858 0.28587973 0.7315722 0.4830387
000130 d4 79 c2 3e a0 3c e5 3d 80 80 fc 3d 5f d9 d2 be
       0.37983572 0.11193204 0.12329197 -0.41181466
000140 14 51 0a 3f 59 b0 ee bf 2e fb fe 3e 68 96 1d 3f
       0.54029965 -1.8647567 0.4980101 0.61557627
000150 b0 21 6c 3f e0 eb 65 3d f9 f5 92 bb 52 fd 62 3f
       0.92238903 0.05613315 -0.0044848886 0.88667786
000160 4f b7 37 3e bc ec ab bf 50 51 24 bf 56 34 f0 3e
       0.1794102 -1.3431621 -0.64186573 0.4691493
000170 e0 00 c3 3e dd 49 0c 3f c3 38 12 3e 1a 15 39 3f
       0.38086605 0.54800206 0.14279465 0.72297823
000180 7b 70 71 3e ad 4b f9 3c cf 3c d4 3e 07 a2 1b 3f
       0.23578064 0.030431593 0.41452643 0.6079411
000190 71 f4 fc bf 88 8e 3c 3f 28 25 bc 3e 1c 32 af 3d
       -1.9762098 0.73654985 0.36747098 0.085544795
0001a0 98 68 9b 3e dc b9 36 3e b9 01 00 3f 2e 14 c4 bf
       0.30353236 0.17844337 0.5000263 -1.5318658
0001b0 53 06 0c 3f 6a 6b 08 3f ce 63 01 3f 7f 68 26 3f
       0.5469715 0.532889 0.50542915 0.650032
0001c0 03 6c 2d 3f b6 ea c0 bf bc fb f6 3d 8b 8c 8a bf
       0.6774294 -1.5071628 0.12059733 -1.082414
0001d0 04 d5 65 3e 82 76 18 3e 4e 42 35 3e 58 3d 73 3f
       0.2244454 0.14888957 0.17701074 0.9501548
0001e0 db 7b 98 3e 2d 9b 5c bf 69 8c 24 3f 03 c4 89 3e
       0.29781994 -0.8617428 0.6427675 0.26907358
0001f0 0b a6 42 bc 7f d3 21 3e 78 e5 0b 3f 51 2e 01 3e
       -0.011880408 0.15803336 0.54647017 0.12615325
000200 ad c0 c8 3d b1 bd 2a 3e 28 1d ea 3c 5a ed d9 3e
       0.09802375 0.16673924 0.028578356 0.42563897
000210 f2 de 46 bd 5e ab 23 3f 73 77 17 3f fd 72 a6 3e
       -0.04855246 0.6393336 0.5916664 0.32509604
000220 81 b3 5f 3e c8 1e 5b 3e f4 d1 af b8 7d d3 2a 3c
       0.21845819 0.21398461 -8.383757e-05 0.010426399
000230 09 51 40 bd 43 62 a5 bf 91 fd bf be de df 49 3d
       -0.04695228 -1.2920612 -0.37498143 0.049285762
000240 c7 b5 c9 bd cf 8b 07 3f dd 5d 84 3e 13 df ee 3e
       -0.098491244 0.52947706 0.25852862 0.46654567
000250 87 1f b0 3d 59 85 3c 3e 29 de 34 3f 21 13 da 3e
       0.08599763 0.18410243 0.7065149 0.4259272
000260 12 8c 8b bf 2c 05 3f 3f 1b 93 04 3f 36 69 4d 3f
       -1.0902121 0.74617267 0.51786965 0.80238664
000270 19 ea 3c 3f 58 25 5d 3f 9a a2 30 3f 0a d6 e5 3e
       0.73794705 0.8638511 0.6899811 0.4488986
000280 2f 16 10 3f 35 56 81 bf 20 87 7f be 41 ec a8 3e
       0.5628385 -1.0104433 -0.2495389 0.32992747
000290 d9 bd 0d 3f c8 1b cd 3e fa 69 9c bf 83 3f cd be
       0.5536781 0.40060258 -1.2219841 -0.40087518
0002a0 1e 1c 4f 3f ba 9f f3 3a 15 fc 1f 3f 1e 3b 31 3f
       0.8090228 0.0018587031 0.6249402 0.6923083
0002b0 13 4a 48 3e 58 23 8b 3e 35 f2 86 3e dd fa ff be
       0.19559507 0.27175403 0.26356664 -0.4999608
0002c0 86 4c 93 3f 77 7e c8 3d a7 5f c6 3e 80 87 02 bf
       1.1507728 0.09789746 0.38744852 -0.50988007
0002d0 5f 48 bd 3e 24 f1 a0 3e 63 32 7c 3f 64 98 10 3f
       0.36969277 0.31433976 0.98514384 0.5648253
0002e0 8b de c7 3e 65 35 aa 3b 2e 60 fa 3e eb 08 dd bf
       0.39036974 0.0051943534 0.48901504 -1.7268347
0002f0 3e 65 b4 3e 16 44 23 3e 89 10 30 3d 63 6b 02 3d
       0.35233492 0.15943941 0.04298452 0.031840693
000300 c8 fd 11 3e 20 18 45 be 3c 4c 1c bd 01 c5 da 3e
       0.14256966 -0.19247484 -0.03815864 0.42728427
000310 4e 68 ae 3d 4d 20 b1 3c f4 ad 49 be 5b f5 5c 3f
       0.08515988 0.021621848 -0.19695264 0.8631188
000320 ba e1 9b 3c 4e 20 5f bf 55 81 bd bd 2e 1e 57 3e
       0.019028533 -0.8715867 -0.09253184 0.21007606
000330 c8 58 61 be 1f e0 31 bd a0 6a 96 bc 3b cb be 3e
       -0.22006524 -0.04342663 -0.01836139 0.37264428
000340 71 7e 13 3f 97 57 22 3e b0 8b 6b 3f c6 5c 5f bf
       0.5761481 0.15853725 0.9201002 -0.87250936
000350 62 54 8f 3e f7 f7 d1 3e 5e 99 18 3b b4 a6 35 3f
       0.27994066 0.41009495 0.0023284773 0.70957494
000360 e7 50 8e 3e f0 7a 1b 3f 29 20 a8 bf bc dd b4 bf
       0.277961 0.6073446 -1.3134815 -1.4130168
000370 14 aa 26 3f 59 84 6f 3e b0 fd e4 3e 9c 9d d5 be
       0.6510327 0.2339033 0.44724798 -0.4172181
000380 46 27 1a 3f 01 a7 b8 3e ce ef 4c 3e 0e ec b4 3e
       0.60216177 0.36064914 0.20013353 0.35336345
000390 f0 24 36 3f d4 04 1b 3f 7a 2a 01 3f e8 c9 55 3f
       0.7115011 0.6055424 0.5045544 0.8351121
0003a0 93 64 19 3f d0 36 db be 81 b6 be 3e fb 86 29 3e
       0.5991909 -0.42815256 0.37248614 0.16555397
0003b0 44 c6 d5 3c 06 11 28 be ea 25 df 3d 4a 38 fd 3e
       0.026095517 -0.16412744 0.108959034 0.49457008
0003c0 1c da 8a 3e 82 3d f4 38 b8 a5 a3 3c a0 d0 1d bd
       0.2711953 0.000116462834 0.019976482 -0.03852904
0003d0 9c fa aa bf 55 85 1c 3e f8 c4 03 bd db 0c 6b bc
       -1.335773 0.15285237 -0.032170266 -0.014346327
0003e0 d1 9e b0 3e 1f b8 ae 3d ba b2 84 3e 24 b6 33 bc
       0.34496167 0.08531212 0.25917608 -0.010968719
0003f0 4c f1 aa 3e 1c af e9 3d 5a be b6 bf 60 ef 2b 3f
       0.3338722 0.114103526 -1.4276841 0.6716213

linear2.bias f4 [3]
000000 08 b9 72 3d c5 04 09 bf cd ea 28 bf
       0.05925849 -0.535229 -0.6598328
